…
[2023-12-07 21:37:34 swin_tiny_patch4_window7_224] (main.py 450): INFO {"cfg": "configs/swin/swin_tiny_patch4_window7_224.yaml", "opts": null, "batch_size": 64, "data_path": "D:\\Learning\\Grad_0\\Project\\Swin-Transformer_Tumor\\Swin-Transformer_Tumor\\data\\dataset", "zip": false, "cache_mode": "part", "pretrained": null, "resume": null, "accumulation_steps": null, "use_checkpoint": false, "disable_amp": false, "amp_opt_level": null, "output": "output", "tag": null, "eval": false, "throughput": false, "local_rank": 0, "fused_window_process": false, "fused_layernorm": false, "optim": null}
[2023-12-07 21:37:34 swin_tiny_patch4_window7_224] (main.py 95): INFO Creating model:swin/swin_tiny_patch4_window7_224
[2023-12-07 21:37:34 swin_tiny_patch4_window7_224] (main.py 97): INFO SwinTransformer(
  (patch_embed): PatchEmbed(
    (proj): Conv2d(35, 96, kernel_size=(4, 4), stride=(4, 4))
    (norm): LayerNorm((96,), eps=1e-05, elementwise_affine=True)
  )
  (pos_drop): Dropout(p=0.0, inplace=False)
  (layers): ModuleList(
    (0): BasicLayer(
      dim=96, input_resolution=(28, 28), depth=2
      (blocks): ModuleList(
        (0): SwinTransformerBlock(
          dim=96, input_resolution=(28, 28), num_heads=3, window_size=7, shift_size=0, mlp_ratio=4.0
          (norm1): LayerNorm((96,), eps=1e-05, elementwise_affine=True)
          (attn): WindowAttention(
            dim=96, window_size=(7, 7), num_heads=3
            (qkv): Linear(in_features=96, out_features=288, bias=True)
            (attn_drop): Dropout(p=0.0, inplace=False)
            (proj): Linear(in_features=96, out_features=96, bias=True)
            (proj_drop): Dropout(p=0.0, inplace=False)
            (softmax): Softmax(dim=-1)
          )
          (drop_path): Identity()
          (norm2): LayerNorm((96,), eps=1e-05, elementwise_affine=True)
          (mlp): Mlp(
            (fc1): Linear(in_features=96, out_features=384, bias=True)
            (act): GELU()
            (fc2): Linear(in_features=384, out_features=96, bias=True)
            (drop): Dropout(p=0.0, inplace=False)
          )
        )
        (1): SwinTransformerBlock(
          dim=96, input_resolution=(28, 28), num_heads=3, window_size=7, shift_size=3, mlp_ratio=4.0
          (norm1): LayerNorm((96,), eps=1e-05, elementwise_affine=True)
          (attn): WindowAttention(
            dim=96, window_size=(7, 7), num_heads=3
            (qkv): Linear(in_features=96, out_features=288, bias=True)
            (attn_drop): Dropout(p=0.0, inplace=False)
            (proj): Linear(in_features=96, out_features=96, bias=True)
            (proj_drop): Dropout(p=0.0, inplace=False)
            (softmax): Softmax(dim=-1)
          )
          (drop_path): DropPath()
          (norm2): LayerNorm((96,), eps=1e-05, elementwise_affine=True)
          (mlp): Mlp(
            (fc1): Linear(in_features=96, out_features=384, bias=True)
            (act): GELU()
            (fc2): Linear(in_features=384, out_features=96, bias=True)
            (drop): Dropout(p=0.0, inplace=False)
          )
        )
      )
      (downsample): PatchMerging(
        input_resolution=(28, 28), dim=96
        (reduction): Linear(in_features=384, out_features=192, bias=False)
        (norm): LayerNorm((384,), eps=1e-05, elementwise_affine=True)
      )
    )
    (1): BasicLayer(
      dim=192, input_resolution=(14, 14), depth=2
      (blocks): ModuleList(
        (0): SwinTransformerBlock(
          dim=192, input_resolution=(14, 14), num_heads=6, window_size=7, shift_size=0, mlp_ratio=4.0
          (norm1): LayerNorm((192,), eps=1e-05, elementwise_affine=True)
          (attn): WindowAttention(
            dim=192, window_size=(7, 7), num_heads=6
            (qkv): Linear(in_features=192, out_features=576, bias=True)
            (attn_drop): Dropout(p=0.0, inplace=False)
            (proj): Linear(in_features=192, out_features=192, bias=True)
            (proj_drop): Dropout(p=0.0, inplace=False)
            (softmax): Softmax(dim=-1)
          )
          (drop_path): DropPath()
          (norm2): LayerNorm((192,), eps=1e-05, elementwise_affine=True)
          (mlp): Mlp(
            (fc1): Linear(in_features=192, out_features=768, bias=True)
            (act): GELU()
            (fc2): Linear(in_features=768, out_features=192, bias=True)
            (drop): Dropout(p=0.0, inplace=False)
          )
        )
        (1): SwinTransformerBlock(
          dim=192, input_resolution=(14, 14), num_heads=6, window_size=7, shift_size=3, mlp_ratio=4.0
          (norm1): LayerNorm((192,), eps=1e-05, elementwise_affine=True)
          (attn): WindowAttention(
            dim=192, window_size=(7, 7), num_heads=6
            (qkv): Linear(in_features=192, out_features=576, bias=True)
            (attn_drop): Dropout(p=0.0, inplace=False)
            (proj): Linear(in_features=192, out_features=192, bias=True)
            (proj_drop): Dropout(p=0.0, inplace=False)
            (softmax): Softmax(dim=-1)
          )
          (drop_path): DropPath()
          (norm2): LayerNorm((192,), eps=1e-05, elementwise_affine=True)
          (mlp): Mlp(
            (fc1): Linear(in_features=192, out_features=768, bias=True)
            (act): GELU()
            (fc2): Linear(in_features=768, out_features=192, bias=True)
            (drop): Dropout(p=0.0, inplace=False)
          )
        )
      )
      (downsample): PatchMerging(
        input_resolution=(14, 14), dim=192
        (reduction): Linear(in_features=768, out_features=384, bias=False)
        (norm): LayerNorm((768,), eps=1e-05, elementwise_affine=True)
      )
    )
    (2): BasicLayer(
      dim=384, input_resolution=(7, 7), depth=2
      (blocks): ModuleList(
        (0): SwinTransformerBlock(
          dim=384, input_resolution=(7, 7), num_heads=12, window_size=7, shift_size=0, mlp_ratio=4.0
          (norm1): LayerNorm((384,), eps=1e-05, elementwise_affine=True)
          (attn): WindowAttention(
            dim=384, window_size=(7, 7), num_heads=12
            (qkv): Linear(in_features=384, out_features=1152, bias=True)
            (attn_drop): Dropout(p=0.0, inplace=False)
            (proj): Linear(in_features=384, out_features=384, bias=True)
            (proj_drop): Dropout(p=0.0, inplace=False)
            (softmax): Softmax(dim=-1)
          )
          (drop_path): DropPath()
          (norm2): LayerNorm((384,), eps=1e-05, elementwise_affine=True)
          (mlp): Mlp(
            (fc1): Linear(in_features=384, out_features=1536, bias=True)
            (act): GELU()
            (fc2): Linear(in_features=1536, out_features=384, bias=True)
            (drop): Dropout(p=0.0, inplace=False)
          )
        )
        (1): SwinTransformerBlock(
          dim=384, input_resolution=(7, 7), num_heads=12, window_size=7, shift_size=0, mlp_ratio=4.0
          (norm1): LayerNorm((384,), eps=1e-05, elementwise_affine=True)
          (attn): WindowAttention(
            dim=384, window_size=(7, 7), num_heads=12
            (qkv): Linear(in_features=384, out_features=1152, bias=True)
            (attn_drop): Dropout(p=0.0, inplace=False)
            (proj): Linear(in_features=384, out_features=384, bias=True)
            (proj_drop): Dropout(p=0.0, inplace=False)
            (softmax): Softmax(dim=-1)
          )
          (drop_path): DropPath()
          (norm2): LayerNorm((384,), eps=1e-05, elementwise_affine=True)
          (mlp): Mlp(
            (fc1): Linear(in_features=384, out_features=1536, bias=True)
            (act): GELU()
            (fc2): Linear(in_features=1536, out_features=384, bias=True)
            (drop): Dropout(p=0.0, inplace=False)
          )
        )
      )
    )
  )
  (norm): LayerNorm((384,), eps=1e-05, elementwise_affine=True)
  (avgpool): AdaptiveAvgPool1d(output_size=1)
  (head): Linear(in_features=384, out_features=2, bias=True)
)
[2023-12-07 21:37:34 swin_tiny_patch4_window7_224] (main.py 100): INFO number of params: 5095964
[2023-12-07 21:37:34 swin_tiny_patch4_window7_224] (main.py 103): INFO number of GFLOPs: 0.617842944
[2023-12-08 11:06:00 swin_tiny_patch4_window7_224] (main.py 449): INFO Full config saved to output\swin_tiny_patch4_window7_224\default\config.json
[2023-12-08 11:06:00 swin_tiny_patch4_window7_224] (main.py 452): INFO AMP_ENABLE: true
…
